…
3213\nROUGE-2-P 0.9718318136896944\nROUGE-2-F 0.26548116834852586\nKorean Summary statement and Report Generation Dataset(ìš”ì•½ë¬¸ ë° ë ˆí¬íŠ¸ ìƒì„± ë°ì´í„°)ROUGE-2-R 0.0987891733555808\nROUGE-2-P 0.9276946867981899\nROUGE-2-F 0.17726493110448185\nTraining\nThe model was trained with the parameters:\ntraining arguments\nSeq2SeqTrainingArguments(\nper_device_train_batch_size=8,\nper_device_eval_batch_size=8,\nauto_find_batch_size=False,\nweight_decay=0.01,\nlearning_rate=4e-05,\nlr_scheduler_type=linear,\nnum_train_epochs=3,\nfp16=True)\nModel Architecture\nT5ForConditionalGeneration(\n(shared): Embedding(50358, 768)\n(encoder): T5Stack(\n(embed_tokens): Embedding(50358, 768)\n(block): ModuleList(\n(0): T5Block(\n(layer): ModuleList(\n(0): T5LayerSelfAttention(\n(SelfAttention): T5Attention(\n(q): Linear(in_features=768, out_features=768, bias=False)\n(k): Linear(in_features=768, out_features=768, bias=False)\n(v): Linear(in_features=768, out_features=768, bias=False)\n(o): Linear(in_features=768, out_features=768, bias=False)\n(relative_attention_bias): Embedding(32, 12)\n)\n(layer_norm): T5LayerNorm()\n(dropout): Dropout(p=0.1, inplace=False)\n)\n(1): T5LayerFF(\n(DenseReluDense): T5DenseGatedActDense(\n(wi_0): Linear(in_features=768, out_features=2048, bias=False)\n(wi_1): Linear(in_features=768, out_features=2048, bias=False)\n(wo): Linear(in_features=2048, out_features=768, bias=False)\n(dropout): Dropout(p=0.1, inplace=False)\n(act): NewGELUActivation()\n)\n(layer_norm): T5LayerNorm()\n(dropout): Dropout(p=0.1, inplace=False)\n)\n)\n)\n(1~11): T5Block(\n(layer): ModuleList(\n(0): T5LayerSelfAttention(\n(SelfAttention): T5Attention(\n(q): Linear(in_features=768, out_features=768, bias=False)\n(k): Linear(in_features=768, out_features=768, bias=False)\n(v): Linear(in_features=768, out_features=768, bias=False)\n(o): Linear(in_features=768, out_features=768, bias=False)\n)\n(layer_norm): T5LayerNorm()\n(dropout): Dropout(p=0.1, inplace=False)\n)\n(1): T5LayerFF(\n(DenseReluDense): T5DenseGatedActDense(\n(wi_0): Linear(in_features=768, out_features=2048, bias=False)\n(wi_1): Linear(in_features=768, out_features=2048, bias=False)\n(wo): Linear(in_features=2048, out_features=768, bias=False)\n(dropout): Dropout(p=0.1, inplace=False)\n(act): NewGELUActivation()\n)\n(layer_norm): T5LayerNorm()\n(dropout): Dropout(p=0.1, inplace=False)\n)\n)\n)\n)\n(final_layer_norm): T5LayerNorm()\n(dropout): Dropout(p=0.1, inplace=False)\n)\n(decoder): T5Stack(\n(embed_tokens): Embedding(50358, 768)\n(block): ModuleList(\n(0): T5Block(\n(layer): ModuleList(\n(0): T5LayerSelfAttention(\n(SelfAttention): T5Attention(\n(q): Linear(in_features=768, out_features=768, bias=False)\n(k): Linear(in_features=768, out_features=768, bias=False)\n(v): Linear(in_features=768, out_features=768, bias=False)\n(o): Linear(in_features=768, out_features=768, bias=False)\n(relative_attention_bias): Embedding(32, 12)\n)\n(layer_norm): T5LayerNorm()\n(dropout): Dropout(p=0.1, inplace=False)\n)\n(1): T5LayerCrossAttention(\n(EncDecAttention): T5Attention(\n(q): Linear(in_features=768, out_features=768, bias=False)\n(k): Linear(in_features=768, out_features=768, bias=False)\n(v): Linear(in_features=768, out_features=768, bias=False)\n(o): Linear(in_features=768, out_features=768, bias=False)\n)\n(layer_norm): T5LayerNorm()\n(dropout): Dropout(p=0.1, inplace=False)\n)\n(2): T5LayerFF(\n(DenseReluDense): T5DenseGatedActDense(\n(wi_0): Linear(in_features=768, out_features=2048, bias=False)\n(wi_1): Linear(in_features=768, out_features=2048, bias=False)\n(wo): Linear(in_features=2048, out_features=768, bias=False)\n(dropout): Dropout(p=0.1, inplace=False)\n(act): NewGELUActivation()\n)\n(layer_norm): T5LayerNorm()\n(dropout): Dropout(p=0.1, inplace=False)\n)\n)\n)\n(1~11): T5Block(\n(layer): ModuleList(\n(0): T5LayerSelfAttention(\n(SelfAttention): T5Attention(\n(q): Linear(in_features=768, out_features=768, bias=False)\n(k): Linear(in_features=768, out_features=768, bias=False)\n(v): Linear(in_features=768, out_features=768, bias=False)\n(o): Linear(in_features=768, out_features=768, bias=False)\n)\n(layer_norm): T5LayerNorm()\n(dropout): Dropout(p=0.1, inplace=False)\n)\n(1): T5LayerCrossAttention(\n(EncDecAttention): T5Attention(\n(q): Linear(in_features=768, out_features=768, bias=False)\n(k): Linear(in_features=768, out_features=768, bias=False)\n(v): Linear(in_features=768, out_features=768, bias=False)\n(o): Linear(in_features=768, out_features=768, bias=False)\n)\n(layer_norm): T5LayerNorm()\n(dropout): Dropout(p=0.1, inplace=False)\n)\n(2): T5LayerFF(\n(DenseReluDense): T5DenseGatedActDense(\n(wi_0): Linear(in_features=768, out_features=2048, bias=False)\n(wi_1): Linear(in_features=768, out_features=2048, bias=False)\n(wo): Linear(in_features=2048, out_features=768, bias=False)\n(dropout): Dropout(p=0.1, inplace=False)\n(act): NewGELUActivation()\n)\n(layer_norm): T5LayerNorm()\n(dropout): Dropout(p=0.1, inplace=False)\n)\n)\n)\n(final_layer_norm): T5LayerNorm()\n(dropout): Dropout(p=0.1, inplace=False)\n)\n(lm_head): Linear(in_features=768, out_features=50358, bias=False)\n)\nCitation\nRaffel, Colin, et al. \"Exploring the limits of transfer learning with a unified text-to-text transformer.\" J. Mach. Learn. Res. 21.140 (2020): 1-67.",
    "OFA-Sys/small-stable-diffusion-v0": "Small Stable Diffusion Model Card\nGradio\nExample\nInitialization\nTraining Procedure\nTraining Data\nCitation\nTraining\nInitialization\nTra
…
